saved_model_state_CNN_final.pth (torch_old, 959177 bytes, 10 tensors)

conv1.weight f4 [16, 3, 5, 5]
-0.18443945 -0.2925456 -0.20926397 -0.26090506 -0.3347622 -0.14860582 -0.1927138 -0.16522188
-0.22770678 -0.18790287 -0.13157102 0.023029033 -0.14014521 -0.08164856 -0.23377536 0.019913351
0.1468143 0.040074397 -0.04974487 0.017672706 0.1680112 0.036131892 -0.018823642 0.07587502
-0.08986323 -0.18195906 -0.23505968 -0.061285686 -0.23720255 -0.16733192 -0.04721039 -0.0325483
-0.19428942 -0.079924844 -0.22872517 0.015078237 -0.035910662 0.023665639 0.048222374 -0.015892385
0.21160269 0.14629123 0.21536882 0.1532993 -0.07726855 0.122428 0.30387858 0.09528578
0.11317499 0.0009830449 -0.11210303 -0.04133671 -0.18046573 -0.043938804 -0.032657444 0.11239654
-0.04805702 0.07295829 -0.13512282 -0.135188 0.12518467 0.20047694 0.13395119 0.14756425
-0.018214598 0.26834336 0.16923483 0.24462709 0.26344916 0.1529233 0.2770313 0.15785849
0.3267903 0.1238804 0.26468596 0.10533649 0.16908604 0.113230675 0.04929802 0.26396012
0.09718434 0.13743606 0.07225366 0.110536076 0.08859943 0.112395324 0.10235178 0.053931296
0.032247704 0.18891403 0.18158653 0.06442635 -0.046535052 0.11658455 0.041002855 0.18625027
-0.0144852875 -0.019882107 0.099500984 0.17847125 -0.09083855 0.012032494 0.0862798 0.074044555
0.022648364 0.051531076 0.01612573 0.07608024 -0.039037973 0.102232315 -0.10238841 -0.13600573
-0.07725294 0.035583436 -0.016018799 -0.021782516 -0.10647587 0.016411342 -0.03323809 0.06107516
-0.014547004 -0.074049294 -0.0853671 -0.123083785 0.031769156 -0.10294784 -0.12106309 -0.13383386
-0.094492264 0.11433168 -0.2050521 -0.08022392 -0.21232785 0.020895248 0.07553743 -0.24628524
-0.13308793 -0.20182551 -0.010082214 -0.14135379 -0.14281571 -0.26985717 -0.22222066 -0.07614999
-0.16539557 -0.20188913 -0.1766117 -0.14978155 -0.15430851 -0.10924331 -0.08877356 -0.10299649
-0.15607318 -0.031256784 -0.14505966 -0.09262539 -0.030875787 -0.07451062 -0.14740725 -0.017723005
-0.039954286 -0.06229073 -0.12550609 -0.11891803 -0.1742769 -0.013642951 -0.10246768 -0.16676208
-0.017555019 0.029215252 0.06519683 -0.036635965 -0.063274495 -0.13463901 0.012391328 -0.11983542
-0.14078972 0.027352309 0.06593505 -0.103196956 0.032147136 -0.15532759 -0.04968793 -0.0003941733
-0.039686766 -0.048380207 -0.050514888 0.040423904 -0.07519435 -0.10916709 0.12422192 -0.07804246
-0.123855494 0.025491007 0.08168908 0.027580611 0.09868049 -0.04663746 -0.05890756 -0.09336899
0.023222663 -0.06850798 -0.017752483 -0.08080728 0.124491945 -0.07215535 -0.023192516 -0.13621221
-0.10343141 0.05573704 0.06681313 -0.037480224 -0.030815145 0.059983972 0.08940402 0.008977296
0.04500852 0.014537077 0.08157208 0.05588581 0.118790284 0.10728241 0.06684656 -0.029917633
-6.564615e-05 0.08398328 0.1184253 -0.03865723 -0.038762543 0.13169426 0.044050414 0.018487923
0.03722289 0.16302158 0.044319842 0.09753571 0.10400213 0.119808376 0.13497114 0.1443856
0.02583047 0.15188162 0.10779761 0.06654752 0.022623207 -0.055999584 -0.06351174 0.07935029
0.15812883 0.05041983 0.07849733 0.041062776 -0.025566967 -0.011516922 0.17670287 0.08302989
00000000: b2dd 3cbe 89c8 95be 4b49 56be 5995 85be
00000010: f365 abbe 202c 18be c456 45be ed2f 29be
00000020: f72b 69be 9c69 40be 8eba 06be 62a7 bc3c
00000030: 3a82 0fbe 5c37 a7bd cf62 6fbe 5321 a33c
00000040: 7d56 163e 0d25 243d 47c1 4bbd 5ac6 903c
00000050: 210b 2c3e 09ff 133d 0a34 9abc 5d64 9b3d
00000060: 370a b8bd 7a53 3abe 7cb3 70be b306 7bbd
00000070: 3ae5 72be 0f59 2bbe af5f 41bd 5e51 05bd
00000080: cef3 46be a3af a3bd ee36 6abe b60a 773c
00000090: 0f17 13bd 71de c13c d384 453d bf30 82bc
000000a0: 60ae 583e 5ecd 153e a589 5c3e 7efa 1c3e
000000b0: f93e 9ebd 88bb fa3d f995 9b3e 3125 c33d
000000c0: 4ac8 e73d 83d9 803a 4696 e5bd af50 29bd
000000d0: 02cc 38be 2df9 33bd d0c3 05bd 2830 e63d
000000e0: 70d7 44bd 286b 953d a35d 0abe b96e 0abe
000000f0: 6930 003e d449 4d3e 802a 093e 151b 173e
00000100: c836 95bc 4d64 893e e54b 2d3e 867f 7a3e
00000110: cfe2 863e ed97 1c3e 0cd7 8d3e a8a5 213e
00000120: 0f51 a73e 02b5 fd3d eb84 873e a8ba d73d
00000130: e424 2d3e 7ce5 e73d b8ec 493d c825 873e
00000140: 9508 c73d 0abc 0c3e baf9 933d bd60 e23d
00000150: 9e73 b53d 852f e63d cf9d d13d 10e7 5c3d
00000160: 2b16 043d ae72 413e d2f1 393e f6f1 833d
00000170: 8a9b 3ebd e1c3 ee3d 9cf2 273d 64b8 3e3e
00000180: b353 6dbc cddf a2bc 2cc7 cb3d 2bc1 363e
00000190: 9009 babd f023 453c 77b3 b03d aca4 973d
000001a0: 1089 b93c 4012 533d 1b1a 843c f5cf 9b3d
000001b0: 48e6 1fbd 2d5f d13d 04b1 d1bd 1645 0bbe
000001c0: ca36 9ebd f0bf 113d db39 83bc 3f71 b2bc
000001d0: 0510 dabd 1471 863c aa24 08bd f229 7a3d
000001e0: 8f56 6ebc 28a7 97bd f2d4 aebd 5a13 fcbd
000001f0: 6020 023d 51d6 d2bd edef f7bd be0b 09be
00000200: 2985 c1bd ba26 ea3d 2df9 51be 704c a4bd
00000210: 796c 59be 832c ab3c 5eb3 9a3d 3332 7cbe
00000220: 3448 08be 59ab 4ebe df2f 25bc 0cbf 10be
00000230: 483e 12be b82a 8abe d08d 63be 87f4 9bbd
00000240: 755d 29be 06bc 4ebe b3d9 34be 5660 19be
00000250: 0d03 1ebe f5ba dfbd eace b5bd d3ef d2bd
00000260: a6d1 1fbe 1d07 00bd 858a 14be 61b2 bdbd
00000270: 38ef fcbc 0699 98bd edf1 16be d62f 91bc
00000280: 1ba7 23bd 9124 7fbd ab84 00be 4c8b f3bd
00000290: a575 32be af86 5fbc 93da d1bd aec3 2abe
000002a0: 8bcf 8fbc d354 ef3c ea85 853d 980f 16bd
000002b0: 0f96 81bd cfde 09be ff04 4b3c 466c f5bd
000002c0: 2e2b 10be f311 e03c f508 873d ed58 d3bd
000002d0: b7ac 033d 320e 1fbe 9285 4bbd 0ba9 ceb9
000002e0: 978e 22bd 532a 46bd b3e8 4ebd 8993 253d
000002f0: 7fff 99bd ff92 dfbd 1068 fe3d bad4 9fbd
00000300: f3a7 fdbd 84d2 d03c 9b4c a73d bcf0 e13c
00000310: ff18 ca3d ec06 3fbd 0e49 71bd 3e38 bfbd
00000320: 743d be3c e94d 8cbd a86d 91bc 4a7e a5bd
00000330: a2f5 fe3d 2fc6 93bd 3bfe bdbc 377b 0bbe
00000340: d9d3 d3bd 864c 643d 53d5 883d dd84 19bd
00000350: 0b70 fcbc c1b1 753d 7419 b73d 8215 133c
00000360: db5a 383d ec2c 6e3c 430f a73d 85e8 643d
00000370: 5248 f33d e1b6 db3d d9e6 883d d315 f5bc
00000380: 82ab 89b8 6dff ab3d f788 f23d 0b57 1ebd
00000390: 79c5 1ebd dcda 063e 356e 343d fc73 973c
000003a0: 0777 183d 21ef 263e b988 353d cdc0 c73d
000003b0: 12ff d43d 185e f53d e035 0a3e d2d9 133e
000003c0: 6c9a d33c db86 1b3e fec4 dc3d 114a 883d
000003d0: 4e54 b93c d25f 65bd 7112 82bd 6882 a23d
000003e0: 86ec 213e 0685 4e3d 35c3 a03d 7131 283d
000003f0: d171 d1bc 79b1 3cbc 99f1 343e 930b aa3d

conv1.bias f4 [16]
0.03290839 0.18160304 -0.08477513 0.13882639 0.08438281 0.11863873 0.13831744 0.07498014
0.10958906 -0.1189851 -0.1063146 0.03609772 -0.13565923 -0.037807107 0.09890233 0.023665464
00000000: f3ca 063d 26f6 393e 959e adbd 8128 0e3e
00000010: e5d0 ac3d ddf8 f23d 16a3 0d3e 308f 993d
00000020: 3b70 e03d 76ae f3bd 78bb d9bd 34db 133d
00000030: 41ea 0abe a0db 1abd 4e8d ca3d 13de c13c

conv2.weight f4 [32, 16, 5, 5]
-0.024759103 0.04869189 0.023327151 0.067644954 0.052181672 -0.026162492 0.061879303 0.016967352
0.047181565 0.05666666 -0.023348166 0.042229112 -0.03181024 -0.030417372 0.018214859 0.022005351
-0.05724229 -0.021728171 0.011644458 -0.02221604 -0.026900934 0.024920063 0.023864975 0.025341228
0.03408022 -0.006015476 0.01689726 0.011780877 -0.047838297 -0.060554963 -0.0074629295 -0.07546482
-0.049220875 -0.07733103 -0.05221004 0.0074213026 -0.014585738 -0.00054147374 -0.022565922 -0.04941255
-0.034006152 -0.04121514 -0.0428353 0.0017842051 0.001636662 -0.06600515 -0.034270033 -0.03408196
-0.023712423 -0.012048807 0.05241796 0.01893502 0.043923758 0.042254504 -0.022868227 0.0053141587
-0.010184427 0.029155325 -0.031885337 0.070766784 -0.006759351 -0.0085082445 -0.01005926 0.01333785
0.02757194 -0.03302948 -0.03860337 -0.008498841 -0.037323337 0.019609695 -0.03091579 -0.0026711132
-0.004615649 -0.03466127 0.011119177 -0.05986275 -0.0083567565 0.03378602 0.018929362 -0.036103725
-0.007872897 -0.04715327 -0.0462286 -0.028829794 -0.0433084 -0.023262495 0.019018585 -0.041449584
-0.056381628 0.009946082 -0.049767233 -0.021001887 -0.058211885 0.018087652 -0.051581573 -0.028107144
0.007412151 -0.016370852 -0.06341694 -0.026761701 -0.0051346594 -0.017496703 -0.040282387 0.0030998292
0.031443357 0.011601799 -0.045286924 -0.04005206 -0.0057661827 -0.043698937 -0.041632365 -0.025157424
0.00016949273 -0.024819514 0.015454754 -0.063159615 -0.06066767 0.0016085049 -0.0047583417 0.015777621
-0.03377548 -0.03724428 -0.025654597 0.021606693 -0.019518897 -0.06392695 -0.01703788 -0.064296715
-0.044288628 -0.029210513 0.018326497 -0.061174724 -0.0588341 -0.00022875734 -0.0088542495 -0.06612157
-0.0064663836 0.011111684 -0.04594649 -0.0037222416 -0.056443527 -0.067139626 -0.07099075 -0.06735745
-0.050663985 -0.0152151575 -0.052359316 -0.05550185 -0.062355474 -0.027281508 -0.028172515 0.013231276
0.034817312 -0.01973873 -0.03059004 0.0052108187 -0.05217219 -0.019238746 0.008172077 0.0060903574
0.03023092 0.012171751 -0.03615151 -0.047307026 -0.068161935 0.040156633 -0.0366936 -0.046251487
0.0012588536 -0.012703507 -0.019445855 0.018532611 -0.048735376 -0.007953928 -0.018811189 -0.046926007
-0.03307223 -0.002444453 0.04570618 0.022606658 -0.012047532 -0.0005338501 -0.026840447 -0.03079285
0.035492416 -0.053976607 0.014322984 -0.046048436 -0.0440024 0.019365076 -0.018410096 -0.009284588
-0.0298902 -0.024901476 0.039237723 0.037830383 0.029916162 0.002332219 0.010476801 0.02311906
-0.03806093 -0.00818181 -0.013654035 0.002473869 -0.01123553 -0.008804409 0.019572632 -0.04990959
0.019102411 -0.025197966 -0.04408812 -0.057112064 -0.04506195 -0.04662423 -0.0055177715 0.028938487
0.007964481 -0.025523499 -0.025543632 -0.013940804 -0.005292308 -0.005095464 -0.051133607 -0.0274511
-0.014855931 -0.015211382 0.047752596 0.04743531 0.07265788 0.04715026 0.047911827 0.03404149
-0.01571224 0.07981358 0.10237049 -0.046195235 -0.04028579 -0.025992928 0.037410952 0.056893665
-0.023369461 0.03482858 -0.007934338 -0.036884665 0.029722527 0.03912976 0.028017255 0.0156191485
0.04382071 0.058951553 0.022194866 0.014600989 0.017981438 -0.054414593 0.0075518233 0.0025837293
00000000: 9ad3 cabc 2671 473d 9518 bf3c 7089 8a3d
00000010: 73bc 553d b952 d6bc 2775 7d3d 1eff 8a3c
00000020: 7541 413d 4d1b 683d a744 bfbc 6ff8 2c3d
00000030: 744b 02bd da2d f9bc 5437 953c 9144 b43c
00000040: e476 6abd 47ff b1bc 66c8 3e3c 6afe b5bc
00000050: 595f dcbc 2925 cc3c 7b80 c33c 6898 cf3c
00000060: b397 0b3d 781d c5bb 1f6c 8a3c 9404 413c
00000070: 17f2 43bd 7b08 78bd 978b f4bb 4d8d 9abd
00000080: d49b 49bd bb5f 9ebd 32da 55bd 662e f33b
00000090: 05f9 6ebc b0f1 0dba 2bdc b8bc d064 4abd
000000a0: 094a 0bbd 35d1 28bd 1174 2fbd fddb e93a
000000b0: 4485 d63a b52d 87bd bc5e 0cbd 8699 0bbd
000000c0: 8e40 c2bc 5c68 45bc 37b4 563d 9d1d 9b3c
000000d0: 66e9 333d 0f13 2d3d 2656 bbbc 6522 ae3b
000000e0: 95dc 26bc 26d7 ee3c 339a 02bd 2dee 903d
000000f0: 8c7d ddbb 2a66 0bbc 98cf 24bc ff86 5a3c
00000100: 8dde e13c ec49 07bd 911e 1ebd b93e 0bbc
00000110: 5be0 18bd 83a4 a03c 1c43 fdbc d80d 2fbb
00000120: df3e 97bb faf8 0dbd 352d 363c a532 75bd
00000130: c7ea 08bc 3663 0a3d c011 9b3c 80e1 13bd
00000140: 53fd 00bc ca23 41bd 335a 3dbd 762c ecbc
00000150: 2664 31bd fd90 bebc ddcc 9b3c 0ac7 29bd
00000160: 6cf0 66bd e4f4 223c bad8 4bbd 260c acbc
00000170: 966f 6ebd 8e2c 943c 3347 53bd f440 e6bc
00000180: a1e1 f23b 2a1c 86bc bee0 81bd 5b3b dbbc
00000190: a540 a8bb 3f55 8fbc 25ff 24bd 8126 4b3b
000001a0: c0ca 003d 7915 3e3c c87e 39bd a10d 24bd
000001b0: 3ff2 bcbb a8fd 32bd b386 2abd f116 cebc
000001c0: dcb9 3139 4b52 cbbc f035 7d3c d459 81bd
000001d0: aa7e 78bd 78d4 d23a ddeb 9bbb 1240 813c
000001e0: 2858 0abd 758d 18bd 9729 d2bc 8500 b13c
000001f0: 18e6 9fbc 22ec 82bd 0693 8bbc ffad 83bd
00000200: fe67 35bd e34a efbc 7321 963c 5992 7abd
00000210: 06fc 70bd 95de 6fb9 6a11 11bc bf6a 87bd
00000220: f5e3 d3bb c80d 363c 6332 3cbd daf0 73bb
00000230: 5431 67bd 8080 89bd 9963 91bd b4f2 89bd
00000240: 0a85 4fbd ff48 79bc b976 56bd e855 63bd
00000250: 7468 7fbd 787d dfbc 0cca e6bc fec7 583c
00000260: 999c 0e3d 1eb3 a1bc f797 fabc 84bf aa3b
00000270: 82b2 55bd 939a 9dbc 2de4 053c 9f91 c73b
00000280: d6a6 f73c 066c 473c 9b13 14bd 03c5 41bd
00000290: 7c98 8bbd 487b 243d 074c 16bd 3372 3dbd
000002a0: 1e00 a53a 5f22 50bc ea4c 9fbc b4d1 973c
000002b0: bf9e 47bd 3151 02bc ec19 9abc 7c35 40bd
000002c0: bf76 07bd 1e33 20bb 6736 3b3d 9931 b93c
000002d0: 0363 45bc 13f2 0bba 7fe0 dbbc 4941 fcbc
000002e0: 7f60 113d 9316 5dbd f3aa 6a3c 499d 3cbd
000002f0: dc3b 34bd 82a3 9e3c c5d0 96bc 621e 18bc
00000300: 4bdc f4bc 2efe cbbc bcb7 203d 08f4 1a3d
00000310: bd12 f53c 24d8 183b e3a6 2b3c 2f64 bd3c
00000320: c7e5 1bbd 000d 06bc 2cb5 5fbc a220 223b
00000330: 3a15 38bc 5e40 10bc c956 a03c 006e 4cbd
00000340: a97c 9c3c f76b cebc bf95 34bd 57ee 69bd
00000350: e192 38bd 0cf9 3ebd 6cce b4bb 6810 ed3c
00000360: 747d 023c a816 d1bc e140 d1bc f867 64bc
00000370: 196b adbb daf7 a6bb 7971 51bd 21e1 e0bc
00000380: 4a66 73bc 2939 79bc 3a98 433d 874b 423d
00000390: a8cd 943d a220 413d 313f 443d 176f 0b3d
000003a0: f5b6 80bc 4d75 a33d 9fa7 d13d 3737 3dbd
000003b0: b602 25bd 1fef d4bc 3a3c 193d 5509 693d
000003c0: 5071 bfbc 6aa8 0e3d 07ff 01bc 6014 17bd
000003d0: a87c f33c 8746 203d 7184 e53c 75e7 7f3c
000003e0: 587d 333d 2f77 713d 02d2 b53c fd38 6f3c
000003f0: cf4d 933c d6e1 5ebd 4975 f73b c953 293b

conv2.bias f4 [32]
-0.034197852 0.033171013 -0.004701676 0.029484797 0.030643556 0.059560597 0.012566852 -0.009402518
0.03185792 -0.029990999 0.06076765 0.000763071 0.05987312 -0.019829746 -0.010089455 0.008848294
0.041778427 -0.048796006 -0.04641818 0.051290385 0.065101676 0.01935563 0.013662512 -0.026981225
-0.013380423 0.03614737 -0.022189325 -0.0021283268 -0.012152609 -0.033633538 0.0122181075 0.010507724
00000000: 0c13 0cbd 54de 073d 8410 9abb 1a8a f13c
00000010: 3208 fb3c d0f5 733d 33e5 4d3c 050d 1abc
00000020: 737d 023d afaf f5bc 80e7 783d d408 483a
00000030: 843d 753d fe71 a2bc 3e4e 25bc 6ff8 103c
00000040: db1f 2b3d 52de 47bd fd20 3ebd de15 523d
00000050: 0754 853d b38f 9e3c bbd8 5f3c bb07 ddbc
00000060: 9039 5bbc 440f 143d 63c6 b5bc 667b 0bbb
00000070: bd1b 47bc 52c3 09bd 752e 483c 9728 2c3c

conv3.weight f4 [32, 32, 3, 3]
0.0094031645 -0.032652464 0.020089215 0.086656496 0.027113808 0.057016633 0.08861328 0.06612923
0.04690582 0.04725916 0.0680438 -0.057869293 0.018181376 0.095944494 0.00032030637 -0.0035520438
0.035347976 0.017974764 0.013631197 -0.03364202 0.035252925 -0.02371121 0.041568834 0.020459358
0.03596943 -0.01536488 0.06537794 0.06386658 0.0074295956 -0.05780694 0.011977423 -0.041130878
-0.0360256 0.017473828 0.044004552 0.043236036 0.11264439 0.046710413 -0.061935015 -0.0002164115
0.13105623 0.031606056 -0.030274363 -0.0012879815 0.06493087 -0.049484074 0.0031307829 0.035729676
-0.03968558 -0.030740924 0.02580141 -0.015805656 0.017093496 -0.080772966 -0.0020979852 -0.07261157
-0.09436531 0.026988365 0.01754491 -0.057419717 -0.027408753 0.03320685 0.06298963 -0.03066722
-0.030362634 -0.021700101 0.031323083 -0.012431911 -0.009810977 -0.03986981 0.10170908 0.09072823
-0.11212578 -0.049620297 0.0042281514 0.030182607 -0.06938859 -0.0065078833 -0.025746668 -0.0045712637
-0.039375756 -0.005268335 0.07785504 -0.038148295 -0.018739428 0.06581721 -0.03296369 0.028290523
-0.060412314 -0.088130794 0.06478992 0.067608245 0.015694913 0.004299811 0.0036709623 -0.05912629
0.04228492 0.02648574 0.013456624 -0.02050463 -0.08265825 0.0067060487 -0.013178346 0.070720606
-0.040398344 0.0011803398 0.023446046 0.0013043362 -0.024910774 -0.021635428 -0.08788191 0.0008856265
0.08419634 0.050631322 -0.045985483 -0.030216284 0.02961748 -0.041718543 -0.089114346 -0.12554236
-0.017004987 -0.14773782 -0.11171725 -0.10034002 0.023923282 -0.03380996 -0.06336873 0.03920338
0.02545287 -0.04840897 0.040460788 0.032972533 0.04548902 0.025764273 -0.028057301 0.040217385
-0.074779525 4.37525e-05 0.09462762 0.048942495 0.0074492292 0.06611546 0.0972008 0.06790292
-0.0020095906 -0.006232031 -0.030840999 0.07062196 0.008003585 -0.10844456 -0.034545124 0.09977614
-0.0026983398 -0.0175342 -0.019105144 -0.06877231 -0.0032709264 0.054951496 -0.01991859 -0.0056348713
0.01590499 0.06723851 -0.008163832 -0.0040424364 0.011838409 0.03086105 0.040934052 -0.048119456
0.01628633 0.030521596 -0.042155772 0.011437831 -0.03413947 -0.060127836 -0.06966896 0.058105268
0.089294225 -0.023427779 0.038259476 0.10497935 0.021797521 -0.008109743 -0.07849013 0.0063254936
-0.103547536 -0.050028753 -0.048138253 -0.06544933 -0.11067943 0.059637405 0.07140797 -0.009630119
0.0012224802 0.019598 -0.018052384 0.05257925 -0.00040166764 0.0775375 -0.058174204 -0.025396088
0.03428098 -0.0009887333 0.019775365 0.008416965 -0.039132416 0.008497043 0.04472308 -0.042915087
0.021169161 -0.064990185 0.00925007 -0.0013559004 0.05668521 0.05398982 -0.06633765 0.031682327
0.03190223 -0.03301195 0.009716247 0.032560036 0.012518572 -0.045056615 0.01709418 0.033051074
-0.07509555 0.10765227 0.030415533 -0.05246462 0.0068635745 -0.09774782 -0.107280254 -0.107339256
0.028742496 0.0055248523 -0.0063319835 -0.05419823 -0.036491666 0.010589288 0.06003453 -0.008083202
0.02899185 0.00561161 -0.03954368 -0.08733106 -0.01990708 -0.004069787 0.03522756 -0.094953105
-0.048331898 0.006828675 -0.07619845 -0.039326206 0.041465174 -0.027948141 0.047158714 0.061083507
00000000: bb0f 1a3c 97be 05bd 2392 a43c f678 b13d
00000010: c71d de3c 468a 693d e17a b53d c36e 873d
00000020: 5120 403d d292 413d 8c5a 8b3d 5a08 6dbd
00000030: 1cf1 943c 8c7e c43d cbee a739 68c9 68bb
00000040: 0ac9 103d d03f 933c 6255 5f3c 37cc 09bd
00000050: 5f65 103d 033e c2bc 1544 2a3d 629a a73c
00000060: ae54 133d fabc 7bbc dfe4 853d 7bcc 823d
00000070: f773 f33b f8c6 6cbd f43c 443c da78 28bd
00000080: 948f 13bd 4625 8f3c 1e3e 343d 4518 313d
00000090: 1ab2 e63d 6b53 3f3d 92af 7dbd 85ec 62b9
000000a0: 9b33 063e 5a75 013d f101 f8bc 7dd1 a8ba
000000b0: 7afa 843d d0af 4abd d22d 4d3b 4859 123d
000000c0: 598d 22bd 64d4 fbbc 7b5d d33c dd7a 81bc
000000d0: a907 8c3c 4c6c a5bd 5a7e 09bb 60b5 94bd
000000e0: 9a42 c1bd b416 dd3c 58ba 8f3c f030 6bbd
000000f0: 5288 e0bc e803 083d b500 813d d239 fbbc
00000100: 0fbb f8bc 69c4 b1bc a24c 003d 37af 4bbc
00000110: 38be 20bc 874e 23bd da4c d03d b9cf b93d
00000120: 33a2 e5bd a73e 4bbd 4e8c 8a3b 8441 f73c
00000130: 9b1b 8ebd 1540 d5bb adea d2bc 8aca 95bb
00000140: 7948 21bd ffa1 acbb 7772 9f3d 6341 1cbd
00000150: 6e83 99bc 2ccb 863d ef04 07bd 87c1 e73c
00000160: e772 77bd eb7d b4bd 94b0 843d 3176 8a3d
00000170: 9e92 803c 6ee5 8c3b 8794 703b 692e 72bd
00000180: f432 2d3d 9ff8 d83c 2c79 5c3c 53f9 a7bc
00000190: bb48 a9bd 6abe db3b fde9 57bc f7d5 903d
000001a0: bc78 25bd a2b5 9a3a ec11 c03c 43f6 aa3a
000001b0: ae11 ccbc c83c b1bc 6efb b3bd 6329 683a
000001c0: 216f ac3d ca62 4f3d 465b 3cbd 2488 f7bc
000001d0: 5ba0 f23c 10e1 2abd 9581 b6bd 2d8e 00be
000001e0: 0b4e 8bbc 9548 17be 03cc e4bd 127f cdbd
000001f0: c2fa c33c 507c 0abd 77c7 81bd b993 203d
00000200: 8a82 d03c 7c48 46bd 36ba 253d 350e 073d
00000210: b252 3a3d 990f d33c 6dd8 e5bc fcba 243d
00000220: 0226 99bd e482 3738 20cc c13d ed77 483d
00000230: aa18 f43b 8b67 873d 3711 c73d b010 8b3d
00000240: 56b3 03bb 1136 ccbb 43a6 fcbc 3fa2 903d
00000250: 7821 033c 2e18 debd 307f 0dbd 6f57 cc3d
00000260: a1d6 30bb e2a3 8fbc 6482 9cbc 7fd8 8cbd
00000270: 0a5d 56bb d214 613d 502c a3bc baa4 b8bb
00000280: 2e4b 823c 58b4 893d 98c1 05bc 6a76 84bb
00000290: e3f5 413c 50d0 fc3c 77aa 273d e818 45bd
000002a0: e96a 853c 6d08 fa3c 88ab 2cbd be65 3b3c
000002b0: d4d5 0bbd 9b48 76bd 9aae 8ebd caff 6d3d
000002c0: e4df b63d 9deb bfbc f8b5 1c3d 6aff d63d
000002d0: b790 b23c bade 04bc 6fbf a0bd 1646 cf3b
000002e0: bb10 d4bd f3ea 4cbd 9e2c 45bd 4c0a 86bd
000002f0: e6ab e2bd 5a46 743d 573e 923d a6c7 1dbc
00000300: a13b a03a fc8b a03c 98e2 93bc 575d 573d
00000310: eb96 d2b9 fbcb 9e3d 1348 6ebd 750b d0bc
00000320: 366a 0c3d 6298 81ba f2ff a13c 4fe7 093c
00000330: 5049 20bd 2e37 0b3c 8c2f 373d bbc7 2fbd
00000340: f36a ad3c 9319 85bd 9b8d 173c 78b8 b1ba
00000350: c02e 683d 6e24 5d3d 09dc 87bd 54c5 013d
00000360: eaab 023d 8a37 07bd e530 1f3c ac5d 053d
00000370: b21a 4d3c 498d 38bd 1809 8c3c 9060 073d
00000380: b2cb 99bd cb78 dc3d ff29 f93c 24e5 56bd
00000390: d6e7 e03b 0230 c8bd c0b5 dbbd afd4 dbbd
000003a0: 6275 eb3c d209 b53b 877c cfbb f7fe 5dbd
000003b0: 4978 15bd b17e 2d3c c4e6 753d 686f 04bc
000003c0: 5180 ed3c 99e1 b73b 8ef8 21bd a0da b2bd
000003d0: 2c14 a3bc d95b 85bb c64a 103d c676 c2bd
000003e0: abf7 45bd 14c3 df3b ef0d 9cbd 8414 21bd
000003f0: 63d7 293d 80f3 e4bc 7f29 413d b332 7a3d

conv3.bias f4 [32]
0.088602036 -0.012717939 0.020458134 -0.020185668 -0.0076473965 0.020563113 0.007186107 0.05187204
-0.025814928 0.013933136 -0.020757504 0.079674356 -0.022783846 0.0070744124 0.029970642 -0.011614352
0.03761017 0.060075317 0.016244758 -0.041776065 -0.044259157 0.026829507 0.0022339234 0.00920911
-0.046163235 -0.007767893 -0.06057584 0.012030129 0.010170124 0.035008006 0.0546869 -0.015286349
00000000: fc74 b53d e75e 50bc d197 a73c 6a5c a5bc
00000010: 0397 fabb f973 a83c 6f79 eb3b c777 543d
00000020: d479 d3bc cf47 643c a40b aabc 4f2c a33d
00000030: 30a5 babc 79d0 e73b fe84 f53c 204a 3ebc
00000040: 1f0d 1a3d 8911 763d ba13 853c 611d 2bbd
00000050: 1749 35bd 8ec9 db3c 0467 123b cfe1 163c
00000060: a915 3dbd cf89 febb 5f1e 78bd 051a 453c
00000070: 97a0 263c 8e64 0f3d 5fff 5f3d 9873 7abc

fc1.weight f4 [256, 800]
0.017397946 -0.0064811283 0.031069238 0.0019256136 -0.031928837 -0.03178207 0.02012386 -0.0034759343
0.035367984 -0.01610275 -0.032238647 -0.01124754 -0.01400566 -0.03956698 -0.0009965327 -0.022090781
-0.03772462 -0.040957525 0.0145993745 -0.032649055 -0.002808362 -0.020238467 0.0031230415 -0.014903959
9.95746e-05 0.0026174227 -0.030251518 0.010315828 0.010538109 -0.023705479 -0.03623497 -0.0010153631
-0.041717153 -0.017414613 0.019718662 0.006638658 -0.00186326 -0.036747374 0.05369807 -0.019922348
0.03170188 0.04362095 -0.013742595 0.0041907933 0.0110787945 0.014231939 0.012151313 0.034980897
0.026031548 -0.0035971892 -0.027933728 0.020451115 -0.037017353 -0.027746938 0.022857932 0.01755402
0.01999587 0.00080717826 0.015831416 -0.02199846 0.03377612 0.027457977 0.0072093615 0.031788792
9.523999e-05 0.024126522 0.011244234 -0.020594245 0.0295242 0.03291797 -0.009503866 0.031045564
0.024884682 -0.00030805002 -0.035848502 -0.004636922 0.03189377 0.008921037 0.03455692 0.02867154
-0.010518121 -0.007873497 0.023513777 0.019635377 0.022798225 0.03421267 -0.029891467 -0.03065337
-0.008799741 -0.001432239 0.020606091 -0.011587458 -0.01453892 -0.0060604205 0.0020005757 0.021022152
-0.029244823 -0.018067347 0.03180723 -0.014305425 0.012122407 -0.026771223 -0.01749716 0.0146227665
0.02824284 -0.018301282 -0.0043051844 0.00035187718 -0.0063979933 -0.0014317892 0.019526497 0.04437338
0.028762134 0.020469462 -0.00802136 0.0092397565 0.056958202 0.03456039 -0.036794513 -0.006249239
-0.009626345 -0.036636125 0.037956554 -0.0060346643 -0.005807239 0.025327027 0.017727882 0.035670534
-0.011935455 -0.0079115415 0.0125998 0.0033186702 -0.018947871 -0.004126206 0.006282296 -0.0015689823
-0.038684737 0.0039600474 0.04941001 0.019654177 0.0026770588 0.07705539 -0.023857847 -0.021455001
-0.027775956 -0.016537333 -0.013525998 0.021008356 -0.015223197 -0.018752374 0.0036833552 -0.016124405
-0.0064903633 -0.0026132169 0.02395521 0.010589855 0.0015631152 -0.012134651 -0.01815034 -0.024403632
-0.0044769803 0.0070482274 -0.02946354 -0.014240528 0.019008156 0.05068552 0.04111597 -0.033126283
-0.02565699 0.001036482 0.04776799 0.010792575 0.03175246 -0.027464403 -0.012202821 -0.0018121374
-0.01011037 -0.025112329 -0.0066473675 -0.00771587 -0.019574776 -0.019047724 0.0036015813 -0.0047651553
-0.026467366 -0.021999434 -0.0063650217 0.0011463421 0.00037640805 -0.0038791336 -0.0055903466 0.00510726
0.022689555 -0.009773606 0.01167202 -0.01662352 0.032532863 0.011642374 -0.016147254 -0.016269924
0.026678199 -0.04204613 0.0011314828 0.0036568504 0.014182935 0.022590775 -0.015106207 -0.010180674
0.015351883 -0.005508409 -0.020458233 -0.034104876 -0.032061886 -0.028969077 -0.03578552 0.012492857
0.0049298243 -0.061786152 0.016696295 -0.016630212 -0.022290546 -0.037569422 -0.0058763763 -0.001339472
-0.029736651 -0.008146511 -0.009432139 0.006461313 0.012050073 -0.005130378 -0.00024060628 0.0025186974
0.004074688 0.015847724 0.0072962195 0.024084644 0.05822835 0.00198954 0.051343672 -0.022948261
0.031338103 0.026090119 0.01621829 -0.04094914 0.017002925 0.020047482 0.0109546995 0.013854727
-0.016507484 0.019848539 -0.01221982 -0.025972372 0.005694654 -0.023404093 0.023078876 -0.026388505
00000000: 2386 8e3c a55f d4bb ea84 fe3c df64 fc3a
00000010: d0c7 02bd ea2d 02bd cbda a43c 80cc 63bb
00000020: 05de 103d eae9 83bc ac0c 04bd 9a47 38bc
00000030: ff77 65bc fc10 22bd 179e 82ba baf7 b4bc
00000040: 2285 1abd 14c3 27bd 3732 6f3c 04bb 05bd
00000050: 7f0c 38bb 24cb a5bc f1ab 4c3b bc2f 74bc
00000060: b5d2 d038 1189 2b3b 08d2 f7bc b803 293c
00000070: 08a8 2c3c fe31 c2bc 1f6b 14bd ef15 85ba
00000080: 9bdf 2abd 17a9 8ebc 0889 a13c 1989 d93b
00000090: a238 f4ba 6a84 16bd 82f2 5b3d 3134 a3bc
000000a0: d5d9 013d e2ab 323d 9f28 61bc ec52 893b
000000b0: d583 353c 142d 693c 4d16 473c 2148 0f3d
000000c0: 1d40 d53c d2be 6bbb 46d5 e4bc 1989 a73c
000000d0: 829f 17bd 8c4d e3bc 8f40 bb3c 73cd 8f3c
000000e0: 61ce a33c d198 533a e3b0 813c 1d36 b4bc
000000f0: d458 0a3d 8def e03c 823c ec3b f734 023d
00000100: 95bb c738 fca4 c53c bc39 383c 43b5 a8bc
00000110: bcdc f13c fed4 063d 1ab6 1bbc 4453 fe3c
00000120: f6da cb3c c681 a1b9 e1d5 12bd 52f1 97bb
00000130: 0ba3 023d 8b29 123c 8f8b 0d3d 94e0 ea3c
00000140: 3254 2cbc d7ff 00bc f79f c03c 5fda a03c
00000150: 58c3 ba3c 9622 0c3d f3de f4bc c71c fbbc
00000160: ca2c 10bc f7b9 bbba 1bce a83c 52d9 3dbc
00000170: a634 6ebc 7e96 c6bb 171c 033b a636 ac3c
00000180: d792 efbc f901 94bc 4c48 023d 4d61 6abc
00000190: 0f9d 463c 534f dbbc 3456 8fbc 5494 6f3c
000001a0: 875d e73c 92ec 95bc 8112 8dbb 287c b839
000001b0: 42a6 d1bb e0aa bbba 08f6 9f3c dcc0 353d
000001c0: 919e eb3c 93af a73c 066c 03bc 5962 173c
000001d0: 014d 693d 328f 0d3d d8b5 16bd 6bc6 ccbb
000001e0: d1b7 1dbc c30f 16bd 5578 1b3d 6fbe c5bb
000001f0: a74a bebb a07a cf3c 103a 913c 441b 123d
00000200: ed8c 43bc 699f 01bc 646f 4e3c 0c7e 593b
00000210: 9138 9bbc 2035 87bb b8db cd3b 4fa6 cdba
00000220: e373 1ebd 49c3 813b 2762 4a3d cc01 a13c
00000230: 9871 2f3b 37cf 9d3d 8871 c3bc 66c2 afbc
00000240: 678a e3bc 4d79 87bc 269c 5dbc b719 ac3c
00000250: b76a 79bc 949e 99bc 7264 713b 5417 84bc
00000260: 1dad d4bb 8142 2bbb b73d c43c 1281 2d3c
00000270: 71e1 cc3a 6ad0 46bc 06b0 94bc 20ea c7bc
00000280: a2b3 92bb d1f4 e63b 865d f1bc 1b51 69bc
00000290: feb6 9b3c 9f9b 4f3d 3869 283d 6daf 07bd
000002a0: 9c2e d2bc 91da 873a 5ea8 433d 57d3 303c
000002b0: de0e 023d 07fd e0bc 57ee 47bc 3e85 edba
000002c0: f7a5 25bc 5fb8 cdbc 29d2 d9bb 69d5 fcbb
000002d0: 485b a0bc f909 9cbc 8208 6c3b 0525 9cbb
000002e0: 17d2 d8bc 2838 b4bc ac91 d0bb dc40 963a
000002f0: a258 c539 1039 7ebb 3a2f b7bb cd5a a73b
00000300: 72df b93c 7a21 20bc 003c 3f3c 0c2e 88bc
00000310: 2e41 053d a8bf 3e3c 3f47 84bc 8148 85bc
00000320: 3d8c da3c 9038 2cbd 434e 943a c5a7 6f3b
00000330: 8a5f 683c 4a10 b93c 0680 77bc d7cc 26bc
00000340: 7786 7b3c e27f b4bb 0698 a7bc 8eb1 0bbd
00000350: 5353 03bd 8f50 edbc d693 12bd d7ae 4c3c
00000360: 5d8a a13b 7a13 7dbd abc6 883c 153c 88bc
00000370: aa9a b6bc 65e2 19bd 9e8e c0bb 3991 afba
00000380: 479a f3bc f278 05bc 4289 1abc 6cb9 d33b
00000390: ab6d 453c bb1c a8bb 424b 7cb9 bb10 253b
000003a0: f684 853b 16d3 813c 2015 ef3b 294d c53c
000003b0: da80 6e3d f162 023b be4d 523d fefd bbbc
000003c0: 625c 003d f2ba d53c 38dc 843c 49ba 27bd
000003d0: b849 8b3c 9e3a a43c 577b 333c f0fe 623c
000003e0: b43a 87bc 6799 a23c a435 48bc 03c4 d4bc
000003f0: 389a ba3b f1b9 bfbc e90f bd3c b52c d8bc

fc1.bias f4 [256]
0.032766193 0.029571129 -0.007840991 0.010608403 0.027034841 -0.030658633 -0.019660085 -0.0020691159
-0.026615145 0.051815886 -0.026416307 -0.0006836275 -0.034816414 -0.0055023916 0.02276511 0.0031420009
-0.025049916 0.060469896 0.028007101 -0.014252755 9.934655e-05 -0.004006947 0.008455515 0.014601192
0.001829748 0.008684754 0.018856026 0.0013008417 -0.020656385 0.029452944 0.03348132 0.015286824
-0.03512993 0.02582322 -0.0172314 -0.013480422 -0.03317339 0.023461482 0.019342855 0.04787138
0.022822062 0.002354722 0.008537646 0.053153567 -0.025249032 0.019736348 -0.034868985 0.045114707
-0.015283971 -0.00021383307 0.0130687095 0.013277327 0.051435012 0.03270401 0.03034752 -0.0052355486
0.051192455 -0.029200647 -0.027218236 -0.019455334 -0.013131696 -0.034570027 0.0034683363 -0.017717483
0.026316302 -0.02018636 0.04142281 0.015540072 0.014093673 0.033693373 0.050121665 -0.0065075075
-0.012452944 -0.023779318 -0.046084497 -0.0034673528 -0.031494237 0.032740656 0.02565014 0.026385546
0.019512517 -0.006033833 0.018344408 -0.009650775 0.015747266 0.016870612 -0.027496513 0.03214863
-0.0153705375 -0.031134587 0.00070323603 0.032677706 -0.029064901 0.004379761 0.044041082 -0.0019986762
0.03467661 -0.0074271644 0.009814795 0.0054585654 0.02263774 0.022908242 -0.025098741 0.039150525
0.02362398 -0.0053180805 -0.032925673 -0.016311841 0.02060104 -0.004695732 0.0170857 -0.019513672
0.02325589 -0.008446085 0.0066918866 0.022366738 0.040531233 0.016264535 0.031320676 -0.026065698
0.015895052 -0.012664513 -0.021121467 0.024391005 0.012833183 0.01802326 -0.004428226 0.0005616792
0.0068749464 -0.023678342 0.044670008 0.0021328637 -0.017145816 0.01979374 -0.016112551 -0.0068164053
0.025824642 -0.013267017 0.00091165316 -0.03967185 0.037968382 0.006926307 0.021488452 0.028719392
0.032162726 -0.034292772 0.0040638116 -0.0064686295 -0.019407203 -0.005941085 0.0074815084 -0.0060912403
0.04845643 -0.011025253 0.034571312 0.022474654 -0.0016347424 -0.013977863 0.012258519 -0.0030515261
-0.027830785 -0.0116832135 0.0001893025 -0.0032433905 0.020751173 -0.030843891 -0.0041346257 -0.018275412
0.036686096 0.024209974 0.0017983523 -0.042989668 -0.0009717328 0.0010713475 0.007754572 -0.02026707
0.016393276 -0.030899761 -0.005496883 0.04679391 -0.02646208 0.02865031 -0.007743986 -0.008559862
0.04234139 0.042323753 0.02043459 0.024291461 0.02743716 0.0037516863 -0.014349752 -0.032738958
0.0070027607 0.042359427 0.025679873 0.0331393 -0.026072865 -0.005977489 -0.030713473 0.023665378
-0.031110013 0.020555548 0.014952341 -0.013323219 0.04041992 0.031561352 -0.011288356 -0.020674808
0.012641245 0.055848867 0.0113620395 -0.03460387 0.0142087815 0.00921754 -0.004541051 0.0110233305
0.037873674 0.018241249 -0.0029425507 -0.028126225 -0.005983189 -0.016034832 -0.017172407 0.03071349
-0.026790028 0.01052483 -0.03152035 0.020723758 -0.0031782468 -0.028319221 -0.02783001 0.018619528
0.02892619 0.034092654 0.027645158 -0.01363774 -0.00065152097 -0.019685863 0.025073739 0.0005483409
0.03915425 0.01934413 -0.0054229624 -0.013632086 0.011210048 0.015797932 -0.0080367625 -0.024698801
0.011338405 -0.013669912 0.023527365 -0.010270724 -0.023889227 0.017262215 -0.006277728 0.0022379041
00000000: d835 063d 273f f23c 8077 00bc dece 2d3c
00000010: 2c78 dd3c d027 fbbc 300e a1bc 019a 07bb
00000020: 0108 dabc e53c 543d 0367 d8bc 7735 33ba
00000030: a89b 0ebd 684d b4bb e57d ba3c 07ea 4d3b
00000040: 7b35 cdbc 48af 773d 266f e53c 6384 69bc
00000050: 4658 d038 b54c 83bb 0089 0a3c d739 6f3c
00000060: 28d4 ef3a 804a 0e3c f477 9a3c 0181 aa3a
00000070: 9437 a9bc 4d47 f13c b523 093d 9675 7a3c
00000080: 67e4 0fbd 388b d33c dd28 8dbc fddc 5cbc
00000090: d2e0 07bd 4b32 c03c e874 9e3c c814 443d
000000a0: 55f5 ba3c ae51 1a3b 7ce1 0b3c 8eb7 593d
000000b0: 0fd7 cebc 1fae a13c c8d2 0ebd 33ca 383d
000000c0: 9f69 7abc 6138 60b9 241e 563c 2589 593c
000000d0: 85ad 523d a4f4 053d 5d9b f83c f78e abbb
000000e0: 2eaf 513d 3236 efbc c7f8 debc cb60 9fbc
000000f0: 5326 57bc 4d99 0dbd 074d 633b 4124 91bc
00000100: 4995 d73c de5d a5bc f7aa 293d c99b 7e3c
00000110: 26e9 663c 1002 0a3d 604c 4d3d ee3c d5bb
00000120: 6f07 4cbc d8cc c2bc 19c3 3cbd 873c 63bb
00000130: 1a00 01bd 111b 063d 3e20 d23c 8026 d83c
00000140: b7d8 9f3c 76b7 c5bb 0347 963c 491e 1ebc
00000150: 6900 813c 3d34 8a3c 5e40 e1bc 48ae 033d
00000160: b5d4 7bbc f60d ffbc 5f59 383a 0fd9 053d
00000170: 8419 eebc 1984 8f3b 6c64 343d 39fc 02bb
00000180: 1009 0e3d 925f f3bb 3cce 203c c4dd b23b
00000190: c872 b93c 11aa bb3c e09b cdbc 4d5c 203d
000001a0: 1487 c13c 4b43 aebb 12dd 06bd 69a0 85bc
000001b0: 83c3 a83c a8de 99bb 4ff7 8b3c 23db 9fbc
000001c0: 2383 be3c 7361 0abc 9d47 db3b 733a b73c
000001d0: 1404 263d 343d 853c 1c4a 003d bb87 d5bc
000001e0: 5736 823c d17e 4fbc ed06 adbc a5cf c73c
000001f0: 4542 523c 84a5 933c a71a 91bb a73d 133a
00000200: 3b47 e13b 15f9 c1bc e6f7 363d 84c7 0b3b
00000210: 6275 8cbc 7b26 a23c 78fe 83bc 275c dfbb
00000220: 338e d33c e75d 59bc 02fc 6e3a f37e 22bd
00000230: bc84 1b3d 13f6 e23b 8d08 b03c ee44 eb3c
00000240: 10bd 033d 9476 0cbd b929 853b ccf6 d3bb
00000250: dbfb 9ebc 6fad c2bb 7127 f53b 0799 c7bb
00000260: 407a 463d 43a3 34bc a69a 0d3d c41c b83c
00000270: da44 d6ba 6803 65bc f5d7 483c 1dfc 47bb
00000280: 63fd e3bc f36a 3fbc 817f 4639 108f 54bb
00000290: 5dfe a93c 54ac fcbc c17b 87bb 51b6 95bc
000002a0: 2944 163d ff53 c63c b1b6 eb3a ef15 30bd
000002b0: e2bb 7eba 756c 8c3a 111a fe3b 2007 a6bc
000002c0: 314b 863c 7f21 fdbc 321f b4bb f9aa 3f3d
000002d0: 01c7 d8bc 0eb4 ea3c 43c1 fdbb aa3e 0cbc
000002e0: 2a6e 2d3d ac5b 2d3d 7166 a73c e3fe c63c
000002f0: e5c3 e03c dade 753b 391b 6bbc 4919 06bd
00000300: 6a77 e53b 1481 2d3d 995e d23c 13bd 073d
00000310: c396 d5bc d0de c3bb d29a fbbc e5dd c13c
00000320: 6dda febc 1c64 a83c aafa 743c a149 5abc
00000330: 5c8f 253d 7a46 013d ccf2 38bc 375e a9bc
00000340: 391d 4f3c c8c1 643d d927 3a3c cabc 0dbd
00000350: f3cb 683c 2a05 173c 19cd 94bb 339b 343c
00000360: 6d21 1b3d ac6e 953c cfd7 40bb f868 e6bc
00000370: a10e c4bb 7b5b 83bc 26ad 8cbc db9a fb3c
00000380: c376 dbbc 5670 2c3c 7c1b 01bd dfc4 a93c
00000390: 224a 50bb b6fd e7bc c3fb e3bc fb87 983c
000003a0: 9ef6 ec3c bda4 0b3d 1978 e23c d470 5fbc
000003b0: d5ca 2aba 3f44 a1bc 7167 cd3c 89be 0f3a
000003c0: 3560 203d 9577 9e3c 1bb3 b1bb 1d59 5fbc
000003d0: 59aa 373c aa6a 813c a0ac 03bc 2455 cabc
000003e0: b8c4 393c c4f7 5fbc 76bc c03c 8a46 28bc
000003f0: 57b3 c3bc 7d69 8d3c 66b5 cdbb cda9 123b

fc2.weight f4 [43, 256]
0.016084373 0.022117479 -0.018182775 -0.04391479 0.004722538 -0.04010555 -0.06090442 0.06399563
0.0051626964 0.0941654 -0.006166042 0.0073825335 -0.096403666 -0.10051395 0.035915952 -0.059952695
-0.019662945 0.09478119 0.0013631899 0.05993066 -0.011577103 -0.053643815 -0.03469696 -0.0044534006
0.0059072357 -0.00955219 0.017240262 0.015624511 0.0019021879 -0.08452987 0.046492774 -0.022397926
-0.052845646 -0.06909049 0.006272867 0.10367504 0.008055806 -0.045973428 0.014200978 -0.07910977
-0.097932525 0.04227444 -0.06986455 -0.007897806 0.010419073 0.007903835 -0.05564099 -0.011770001
-0.03203667 0.059748158 0.016310802 0.014565199 0.04813538 -0.035663858 -0.0697003 0.023846848
-0.02965298 -0.009891343 0.0891281 -0.10791487 0.022421984 0.03689301 -0.0255217 -0.014829135
-0.087690674 0.040547155 -0.07313297 0.05551799 0.12121693 -0.018390933 0.07085823 -0.054411095
-0.049909297 -0.0067566447 -0.035910215 0.05136257 -0.0042995145 -0.022669896 0.0155304205 0.0101756165
-0.0074031716 -0.04871325 -0.08593028 0.042920813 0.15337348 -0.026755147 -0.040249363 -0.0022862423
0.0317347 0.04326591 0.06899635 -0.09868752 -0.03079943 -0.04716496 0.13539118 0.013375684
-0.026464269 -0.043019034 0.05383557 0.010977341 -0.019024456 0.051091105 -0.006778258 -0.019469177
-0.060942207 0.010864727 0.028675687 -0.065963954 -0.08391163 -0.054989744 0.041200258 0.013425448
-0.037497465 0.014506478 -0.0031860876 0.052379634 0.09136502 -0.073808156 -0.012699433 0.16075565
-0.060723875 -0.009732698 -0.090141885 0.05662455 -0.032202136 -0.017535552 0.030869463 -0.020418534
0.086810425 0.0094613675 -0.02756295 0.04873888 0.04454307 0.008433534 -0.028345725 -0.050634727
0.037182897 -0.01646302 0.04538969 0.05257855 0.037246287 0.037747473 -0.0208484 -0.037239667
0.070938975 -0.034146264 -0.066163026 -0.032537345 -0.04330131 -0.04673327 -0.09424248 0.00667315
-0.015474106 -0.035666637 0.006663231 0.06508414 -0.012858923 -0.00038105508 0.029086256 0.012550839
0.094197474 0.0814989 0.0031815995 -0.09564395 0.036866307 -0.07696871 0.054520383 0.045737807
-0.04145572 0.025327811 -0.09136441 -0.08220698 0.013406618 0.06882361 -0.028940305 -0.013677475
0.01821095 0.029958826 -0.08116862 -0.004809152 0.0037830167 0.030686764 -0.004487408 -0.051075995
-0.08125538 -0.044694837 0.030228203 0.054701194 -0.05321908 0.054490015 0.00052608515 -0.05518096
-0.0031580022 0.10079078 0.08589687 0.027109278 0.024051912 0.06602754 0.026967805 -0.005540685
-0.016510867 0.068776876 -0.042010017 -0.039494697 -0.04005839 -0.0011659922 0.0028289992 -0.01848138
0.022756048 0.08096031 -0.07860724 0.029838659 0.11734235 0.024581725 0.18134807 -0.018243724
-0.04617571 -0.02587208 -0.060384728 0.027262764 0.01045492 -0.0442908 -0.053175528 0.12161823
-0.07107149 -0.002374008 0.07009026 -0.032400627 0.09180266 -0.040545743 0.10180296 0.041200604
0.07363174 0.022418784 -0.041416086 -0.04932078 0.0032989206 0.020328114 -0.036692694 -0.0015937979
-0.053699233 0.015363993 -0.031436753 0.030826852 -0.026714854 0.05071602 -0.005994195 -0.076559216
-0.0037959532 0.09786318 -0.022111401 0.08611203 0.03589173 -0.060256954 -0.043479968 0.05418062
00000000: 60c3 833c b72f b53c 0bf4 94bc ffdf 33bd
00000010: 85bf 9a3b b845 24bd ea76 79bd 2410 833d
00000020: d62b a93b cad9 c03d 820c cabb 2ee9 f13b
00000030: 496f c5bd 42da cdbd 9b1c 133d f590 75bd
00000040: 2f14 a1bc a41c c23d 10ad b23a da79 753d
00000050: e4ad 3dbc 9eb9 5bbd 661e 0ebd d5ed 91bb
00000060: 7c91 c13b ca80 1cbc 733b 8d3c f3fd 7f3c
00000070: d652 f93a ff1d adbd 356f 3e3d db7b b7bc
00000080: ad74 58bd 517f 8dbd 9f8c cd3b 9453 d43d
00000090: 80fc 033c a24e 3cbd 38ab 683c 4e04 a2bd
000000a0: d990 c8bd f727 2d3d 2515 8fbd cd65 01bc
000000b0: c2b4 2a3c 167f 013c cfe7 63bd f6d6 40bc
000000c0: e238 03bd 7cba 743d 3b9e 853c dfa2 6e3c
000000d0: 9b29 453d 4414 12bd 08bf 8ebd 775a c33c
000000e0: ceea f2bc 4d0f 22bc cb88 b63d 7902 ddbd
000000f0: 4fae b73c 201d 173d e212 d1bc e6f5 72bc
00000100: 2b97 b3bd c614 263d bdc6 95bd d566 633d
00000110: 9540 f83d 95a8 96bc 1f1e 913d 2bde 5ebd
00000120: b16d 4cbd d866 ddbb 9716 13bd 8f61 523d
00000130: f1e2 8cbb 38b6 b9bc 4e73 7e3c a1b7 263c
00000140: 4e96 f2bb 8b87 47bd 37fc afbd bccd 2f3d
00000150: f00d 1d3e 9c2d dbbc 84dc 24bd c8d4 15bb
00000160: 3ffc 013d 9837 313d f54d 8d3d af1c cabd
00000170: 164f fcbc 0c30 41bd fca3 0a3e af25 5b3c
00000180: 98cb d8bc ba34 30bd b082 5c3d 4eda 333c
00000190: 2dd9 9bbc e844 513d 261c debb d37d 9fbc
000001a0: 899e 79bd f801 323c 46e9 ea3c 1c18 87bd
000001b0: dcd9 abbd ed3c 61bd 9ac1 283d 69f6 5b3c
000001c0: f196 19bd 94ac 6d3c aecd 50bb 078c 563d
000001d0: 951d bb3d bb28 97bd 4811 50bc 219d 243e
000001e0: 99b9 78bd e575 1fbc 4f9c b8bd 25ef 673d
000001f0: 63e6 03bd b8a6 8fbc f5e1 fc3c c544 a7bc
00000200: aac9 b13d da03 1b3c b2cb e1bc 6ba2 473d
00000210: cb72 363d ce2c 0a3c 4b35 e8bc 5c66 4fbd
00000220: 184d 183d 75dd 86bc 8aea 393d 9b5c 573d
00000230: 908f 183d 189d 1a3d 44ca aabc 9f88 18bd
00000240: 7448 913d f4dc 0bbd 7b80 87bd e145 05bd
00000250: b75c 31bd 636b 3fbd 3402 c1bd 71aa da3b
00000260: 1b87 7dbc 2e17 12bd 3c57 da3b d54a 853d
00000270: 3bae 52bc 59c8 c7b9 4d46 ee3c 09a2 4d3c
00000280: 9bea c03d e5e8 a63d 6282 503b fae0 c3bd
00000290: 2001 173d c5a1 9dbd c450 5f3d 9157 3b3d
000002a0: 79cd 29bd 457c cf3c 441d bbbd 225c a8bd
000002b0: 6ea7 5b3c 65f3 8c3d 3814 edbc 7d17 60bc
000002c0: 212f 953c 366c f53c bc3b a6bd 1796 9dbb
000002d0: 7dec 773b cf62 fb3c 1b0b 93bb 1035 51bd
000002e0: 3869 a6bd ef11 37bd 23a1 f73c 5c0e 603d
000002f0: 40fc 59bd ec30 5f3d fae8 093a 6e05 62bd
00000300: 7cf6 4ebb 656b ce3d b3ea af3d 4714 de3c
00000310: 8408 c53c 7239 873d 96eb dc3c a28e b5bb
00000320: cc41 87bc e4da 8c3d b212 2cbd 31c5 21bd
00000330: 4414 24bd 35d4 98ba bb66 393b 4366 97bc
00000340: e46a ba3c 85ce a53d d5fc a0bd 3470 f43c
00000350: 3051 f03d 9d5f c93c 4fb3 393e dd73 95bc
00000360: be22 3dbd aff1 d3bc fa55 77bd 2956 df3c
00000370: 1d4b 2b3c 456a 35bd 95ce 59bd fb12 f93d
00000380: ee8d 91bd 3f95 1bbb 7b8b 8f3d 85b6 04bd
00000390: 0803 bc3d 4b13 26bd 127e d03d f7c1 283d
000003a0: 3dcc 963d 99a7 b73c eaa3 29bd 9604 4abd
000003b0: b432 583b 2587 a63c 144b 16bd fce6 d0ba
000003c0: baf3 5bbd 42b9 7b3c d3c3 00bd 9888 fc3c
000003d0: 1cd9 dabc 9abb 4f3d f46a c4bb 14cb 9cbd
000003e0: 87c5 78bb 7e6c c83d f822 b5bc 815b b03d
000003f0: 3503 133d ffcf 76bd 0d18 32bd 7fec 5d3d

fc2.bias f4 [43]
-0.117968895 0.1728621 0.124658234 -0.01825684 0.03893546 0.07641929 -0.07120651 0.055470433
0.02143121 -0.007371159 0.0038622115 0.0104330275 0.054494612 0.10876723 -0.0048927036 -0.049486466
-0.11463502 -0.03140725 0.1596849 -0.016302535 -0.035992086 -0.02153174 -0.011873553 -0.03563977
-0.06420729 0.047645666 -0.05390119 -0.04508072 0.028371412 -0.06171129 -0.03995408 0.0024462272
0.02720343 0.039025478 -0.01015424 0.02475498 -0.011287635 -0.12487492 0.13415037 -0.07442269
-0.0651765 -0.049150247 -0.065474786
00000000: ad99 f1bd c302 313e d14c ff3d 5e8f 95bc
00000010: ca7a 1f3d b781 9c3d b8d4 91bd f734 633d
00000020: 8190 af3c c389 f1bb 281d 7d3b 4aef 2a3c
00000030: be35 5f3d 5ac1 de3d f952 a0bb 52b2 4abd
00000040: c4c5 eabd e3a4 00bd 7084 233e e58c 85bc
00000050: 706c 13bd 5563 b0bc 4a89 42bc 02fb 11bd
00000060: 1d7f 83bd 1a28 433d 7fc7 5cbd 90a6 38bd
00000070: 2a6b e83c fac4 7cbd e4a6 23bd e250 203b
00000080: bad9 de3c 2ed9 1f3d f85d 26bc f5ca ca3c
00000090: c6ef 38bc 6cbe ffbd b75e 093e ec6a 98bd
000000a0: 427b 85bd c551 49bd a517 86bd
